deepfake-voice-detector/models/model2.pth (torch, 398449 bytes, 24 tensors)

conv1.weight f4 [32, 1, 7, 7]
0	0x3db6bf4a	0.08923204
1	0xbd1f7429	-0.03892914
2	0x3e01686f	0.12637495
3	0xbdc5d34f	-0.096594445
4	0x3db603e6	0.08887462
5	0x3dcba93f	0.099443905
6	0x3d7b0b17	0.061289873
7	0x3d87f5e1	0.066386946
8	0xbdb39198	-0.08768004
9	0x3d427d3e	0.04748272
10	0x3d9de2ba	0.0770926
11	0xbc3ee965	-0.011652325
12	0xbda34516	-0.079721615
13	0xbdc4c116	-0.09607141
14	0x3e109e4e	0.14122888
15	0xbbd1f3e8	-0.0064072497
16	0x3dda892e	0.10670696
17	0x3e12b298	0.1432594
18	0xbdb3858e	-0.08765708
19	0xbd050770	-0.032477796
20	0xbd9abea0	-0.0755589
21	0xbd1035c9	-0.035207544
22	0xbdb43589	-0.087992735
23	0x3d9d3497	0.07676046
24	0xbde90acd	-0.11379013
25	0x3d4719ec	0.048608705
26	0x3e14a944	0.14517695
27	0xbd862e92	-0.06551851
28	0xbcbe7df4	-0.023253419
29	0x3d23b19e	0.03996431
30	0x3bd3e0b2	0.0064659948
31	0xbdf23d6e	-0.11828123
32	0x3e0c6827	0.13711606
33	0xbd6a22a9	-0.05716196
34	0x3de31071	0.1108712
35	0x3b843948	0.004035149
36	0x3e06a506	0.13148889
37	0xbce8c4d5	-0.02841417
38	0x3dca07e9	0.0986479
39	0x3d86aa29	0.06575424
40	0x3db501a7	0.08838206
41	0xbdeb6e05	-0.11495594
42	0xbd345aaf	-0.044031795
43	0xbd47e95f	-0.048806544
44	0x3d71724f	0.058946904
45	0xbd9822e2	-0.07428528
46	0xbbb07e53	-0.005386153
47	0x3e1120d9	0.14172687
48	0xbde9ac96	-0.11409871
49	0x3d176643	0.03696276
50	0xbe10e1b6	-0.14148602
51	0xbd828dbd	-0.06374691
52	0xbe09846c	-0.13429421
53	0x3d871e9b	0.065976344
54	0xbcedcd6f	-0.029028622
55	0xbdc1c851	-0.094620354
56	0xbd58807b	-0.052856904
57	0xbd15a67d	-0.03653573
58	0xbd042436	-0.032261096
59	0xbe02e528	-0.12782729
60	0x3df6af59	0.12045164
61	0x3e0387fc	0.12844843
62	0xbd7216e8	-0.059103876
63	0xbd2042fb	-0.039126378
64	0x3dc68935	0.09694139
65	0x3d172c53	0.036907505
66	0x3deb06d7	0.11475914
67	0xbd90648d	-0.070504285
68	0x3da3cf44	0.07998517
69	0xbcb9f605	-0.022700319
70	0xbd5bbf8a	-0.053649463
71	0x3d2b5853	0.04183228
72	0xbde16f85	-0.11007599
73	0x3e05a018	0.13049352
74	0xbcd528b4	-0.026020385
75	0xbda21b53	-0.07915368
76	0xbe04a4ee	-0.1295354
77	0x3da9cde0	0.08291221
78	0xbc119c03	-0.008887294
79	0x3dc82394	0.09772411
80	0xbd05bdca	-0.0326517
81	0x3d9395a8	0.07206279
82	0xbd030f3d	-0.031996954
83	0xbdd7e42d	-0.10541568
84	0xbe12ef66	-0.14349136
85	0x3d537675	0.05162664
86	0xbc211e9e	-0.00983396
87	0xbdad0f66	-0.08450203
88	0x3d167c41	0.03673959
89	0x3d3b4585	0.045720596
90	0xbb0d3035	-0.0021543626
91	0xbe05805e	-0.1303725
92	0xbd60f802	-0.05492402
93	0xbc83f654	-0.01610867
94	0xbd07ca0c	-0.03315167
95	0xbd793d94	-0.06084974
96	0xbca3dc65	-0.020002553
97	0x3da96cde	0.08272718
98	0xbe067713	-0.1313136
99	0xbe0c43f4	-0.13697797
100	0x3dd47443	0.10373738
101	0xbdb782a1	-0.08960462
102	0x3df7b08c	0.120942205
103	0xbe1207b8	-0.14260757
104	0x3d987617	0.07444399
105	0x3cd40a3f	0.025883792
106	0xbde0765d	-0.10960076
107	0x3d54acb4	0.051922515
108	0x3d51b6fa	0.05119989
109	0x3d5ca067	0.05386391
110	0xbe129cea	-0.1431767
111	0xba9d1ba0	-0.0011986382
112	0x3d8a3a4c	0.067494005
113	0xbc8e0e0c	-0.017340682
114	0x3d181b44	0.037135378
115	0x3d5c847d	0.05383729
116	0xbd18edcf	-0.037336167
117	0xbe082bca	-0.13297954
118	0xbd83ea36	-0.064411566
119	0xbd78ef06	-0.060774826
120	0xbc87ad3e	-0.0165621
121	0x3dd8e96f	0.10591399
122	0xbde8d52e	-0.11368786
123	0x3d207826	0.039177082
124	0x3d159ae9	0.036524687
125	0x3cc44f68	0.023963645
126	0xbd71602a	-0.0589296
127	0xbe01adc7	-0.12663947
128	0x3d44330e	0.047900252
129	0xbd4a9d08	-0.049466163
130	0xbcbb4dbb	-0.022864213
131	0x3dee2982	0.11629011
132	0xbbe0475b	-0.0068444437
133	0x3d4f3874	0.050590947
134	0xbdf655ca	-0.12028082
135	0xbc2793bd	-0.010228095
136	0xbd9e8700	-0.07740593
137	0xbcba0b06	-0.022710335
138	0x3dcdb7e8	0.10044843
139	0x3d0002d4	0.031252697
140	0x3c6c6e77	0.014430634
141	0xbe1651d6	-0.14679655
142	0x3da9d62b	0.082928024
143	0xbd767f86	-0.06018021
144	0xbe0ecf57	-0.13946281
145	0xbdbfd128	-0.09366065
146	0x3dcbc370	0.09949386
147	0x3da84a5b	0.08217307
148	0x3de7c0a4	0.1131604
149	0x3d6ec223	0.058290612
150	0x3d41fb5f	0.047358867
151	0x3c94bc23	0.018156117
152	0x3ce6b577	0.028162701
153	0x3e0c0f65	0.13677748
154	0x3dbd6cfe	0.09249304
155	0x3d80d6f2	0.062909976
156	0xbdd12174	-0.10211459
157	0xbda7be5f	-0.08190607
158	0x3da0955b	0.07840987
159	0xbd18f5c8	-0.03734377
160	0x3dfab85d	0.12242196
161	0x3ca304bb	0.019899717
162	0xbe030e16	-0.12798342
163	0x3d4c007e	0.049805157
164	0xbdbd974d	-0.09257374
165	0xbdaa87c4	-0.083266765
166	0x3e188d3a	0.14897624
167	0xbcd79c68	-0.026319697
168	0xbe050fa5	-0.12994249
169	0x3a5e3f62	0.00084780727
170	0x3da5bad5	0.08092276
171	0x3d979f49	0.07403428
172	0xbdbec1e0	-0.093143225
173	0xbd6f6e49	-0.058454785
174	0xbdc08a7f	-0.09401416
175	0x3d8b0003	0.067871116
176	0xbda33cf8	-0.07970613
177	0xbc8cfdb0	-0.017210811
178	0xbce7ab96	-0.02828006
179	0x3e08234b	0.13294713
180	0x3de0beee	0.10973917
181	0xbd686a60	-0.056742072
182	0x3dac604c	0.08416805
183	0xbe11e1d8	-0.14246309
184	0x3d9c7e53	0.07641282
185	0xbde21913	-0.11039939
186	0x3c4ba2f9	0.012428992
187	0xbd7a5a9e	-0.061121576
188	0xbc789f52	-0.015174704
189	0xbc967514	-0.018366374
190	0xbe0cd91f	-0.137547
191	0xbe0e7b8a	-0.13914314
192	0xbd51c630	-0.051214397
193	0xbe11752b	-0.14204852
194	0x3d4e1f92	0.050323077
195	0xbda27d89	-0.079341
196	0xbcc838cd	-0.024441147
197	0xbcbabe9a	-0.022795964
198	0xbd4da5b6	-0.050206862
199	0x3dccdd8a	0.10003193
200	0xbdd84d6f	-0.10561644
201	0x3dd29ed6	0.10284202
202	0xbc17c21f	-0.009262591
203	0xbdbe1f62	-0.092833295
204	0x3b919e56	0.004443924
205	0xbe173edb	-0.14770071
206	0xbd3e6a40	-0.046488047
207	0x3d08fca9	0.03344408
208	0xbdfb2930	-0.12263715
209	0x3e0ce9f6	0.13761124
210	0xbbdf1e87	-0.006809059
211	0x3bf078b4	0.0073386077
212	0xbe1722f4	-0.14759427
213	0x3e017b3b	0.12644665
214	0x3d418d47	0.047253873
215	0x3cca942b	0.024728855
216	0x3b8ef52e	0.004362724
217	0x3d9c31bb	0.07626673
218	0xbcfaf99f	-0.030636607
219	0x3b76c6b5	0.003765506
220	0x3e05bf7a	0.13061324
221	0x3d55d033	0.052200507
222	0xbd729e63	-0.05923308
223	0xbd88c368	-0.06677896
224	0xbd560fb3	-0.052261066
225	0x3ce32327	0.027726723
226	0x3dabe0df	0.083925
227	0x3d8275a3	0.06370094
228	0xbc1eb31e	-0.00968626
229	0xbdde0d22	-0.10842349
230	0xbd6dc182	-0.05804587
231	0x3d202a2c	0.03910272
232	0x3db799d6	0.08964889
233	0xbe10823f	-0.14112185
234	0x3ddd8a43	0.10817387
235	0x3d8f2a10	0.06990445
236	0xbd6c1113	-0.05763347
237	0x3d2de71b	0.042456727
238	0xbd84cc39	-0.06484265
239	0x3e0958d9	0.13412799
240	0xbd0f5822	-0.03499616
241	0xbd7c8809	-0.06165317
242	0xbdcac690	-0.09901154
243	0x3c9d2101	0.019180777
244	0x3bd87a71	0.006606393
245	0x3cfaae9b	0.030600837
246	0x3c9d4941	0.01919997
247	0x3da6b1df	0.08139395
248	0xbdf0cc18	-0.11757678
249	0xbd5159c8	-0.051111013
250	0x3d77f683	0.060537826
251	0xbdbe081a	-0.09278889
252	0x3d5a92a1	0.053362492
253	0x3cbdc633	0.023165798
254	0xbc394a2c	-0.011309188
255	0xbdbe9979	-0.09306616

conv1.bias f4 [32]
0	0xbe0b1cf0	-0.13585258
1	0x3db332a1	0.08749891
2	0xbd8e81a4	-0.06958321
3	0x3da0dcd0	0.07854617
4	0x3dc6ad5e	0.09701036
5	0xbdf5de6a	-0.12005313
6	0x3e115784	0.14193541
7	0xbdf78e01	-0.12087632
8	0x3d1d4689	0.038397346
9	0x3d50b34a	0.050952233
10	0xbdc97cb2	-0.09838237
11	0x3d62003e	0.055176012
12	0xbd147354	-0.036242798
13	0xbdbe43d8	-0.09290284
14	0x3d549562	0.051900275
15	0xbd51fce7	-0.051266577
16	0xbd8122a6	-0.06305437
17	0xbc30535a	-0.01076206
18	0xbd46cb34	-0.048533633
19	0x3d9bc2f7	0.07605546
20	0xbd83da90	-0.06438172
21	0x3ce3d0a3	0.027809447
22	0xbde31775	-0.110884584
23	0x3deac9fa	0.11464305
24	0xbd1a9ee6	-0.037749194
25	0x3dfdf480	0.1240015
26	0xbc5f6197	-0.013634107
27	0xbda4e9b4	-0.08052388
28	0x3da2b774	0.07945147
29	0xbd864022	-0.06555201
30	0xbd25bb02	-0.040461548
31	0xbd79b969	-0.060967837

bn1.weight f4 [32]
0	0x3f7ee289	0.99564415
1	0x3f817474	1.0113664
2	0x3f81e506	1.0148017
3	0x3f7c62ef	0.9858846
4	0x3f7d6b55	0.989919
5	0x3f7e20bd	0.99268705
6	0x3f7c983b	0.98669785
7	0x3f7f8bf7	0.99822944
8	0x3f806a6f	1.0032481
9	0x3f80d388	1.0064554
10	0x3f818e65	1.012158
11	0x3f7f1419	0.9964004
12	0x3f812ff1	1.0092756
13	0x3f81163c	1.008491
14	0x3f7f47d6	0.9971899
15	0x3f7e58dd	0.99354345
16	0x3f817a9c	1.0115542
17	0x3f7d5966	0.98964536
18	0x3f7dc398	0.9912658
19	0x3f7be7ee	0.9840077
20	0x3f7d5e45	0.9897197
21	0x3f80a37b	1.004989
22	0x3f7f7d31	0.998004
23	0x3f80bb77	1.005721
24	0x3f8064de	1.0030782
25	0x3f7e0014	0.9921887
26	0x3f80f7f0	1.0075665
27	0x3f7d42b6	0.9892992
28	0x3f80b76f	1.005598
29	0x3f7f9cc0	0.99848557
30	0x3f80fd92	1.0077384
31	0x3f7e5570	0.9934912

bn1.bias f4 [32]
0	0x3c0e06a4	0.008668575
1	0xbb58cff6	-0.0033082939
2	0x3c1fa1c3	0.009743157
3	0xbb982287	-0.004642788
4	0xbc51b937	-0.012800506
5	0xbbb9a9a2	-0.0056659738
6	0xbbfd0489	-0.007721488
7	0xbc3a4cb2	-0.011370825
8	0x3c1f16f3	0.009710061
9	0x3bbbbdaa	0.005729397
10	0x3bdb11ab	0.006685456
11	0xbb1bf76e	-0.0023798603
12	0x3c61fb2e	0.013792796
13	0x3c7ec8b6	0.015550783
14	0x3c476970	0.012171134
15	0xbc0bbcce	-0.008528901
16	0x3c0d9832	0.008642243
17	0x3c1e9748	0.009679623
18	0xbbccbc23	-0.0062480136
19	0x3c08e5b3	0.008355546
20	0xbaad9f5a	-0.0013246343
21	0x3c1122b9	0.008858376
22	0x3c5cfd87	0.01348818
23	0x3953f1f9	0.0002021267
24	0xbc140718	-0.009034894
25	0xbb8e1d55	-0.0043369927
26	0x3a1f0b1e	0.0006067025
27	0xbc4d8486	-0.012543803
28	0xbbe1be49	-0.006889139
29	0x3c2a86bc	0.0104081
30	0x3c24c57e	0.010056851
31	0xbbdaf08c	-0.0066815075

bn1.running_mean f4 [32]
0	0xc195fe2d	-18.74911
1	0x419ab970	19.340546
2	0x41a6d5fa	20.85448
3	0x410802fe	8.5007305
4	0xbf815efc	-1.0107112
5	0xc1f0d94d	-30.106104
6	0xc12a1793	-10.630755
7	0x408a550b	4.322881
8	0xc172dcde	-15.178923
9	0x41d65e0e	26.795925
10	0xc1c662e5	-24.798288
11	0x40e9a25f	7.3010707
12	0x41c2ca01	24.348635
13	0x42311d2d	44.278492
14	0xc193afe2	-18.46088
15	0xc0019b90	-2.0251198
16	0x41a97556	21.182293
17	0xc13b3303	-11.699954
18	0xbfc34f44	-1.5258565
19	0xc1385d24	-11.522739
20	0x4109620c	8.586437
21	0x4199af5f	19.21063
22	0xc1ad9cac	-21.7015
23	0x41664912	14.392839
24	0x418628af	16.769865
25	0x412a75bb	10.653743
26	0x41f5ba36	30.715923
27	0xbfd3c192	-1.6543448
28	0x41643abc	14.264339
29	0xc1b60cfe	-22.756344
30	0x41dc038c	27.501732
31	0xc1a8e25c	-21.110527

bn1.running_var f4 [32]
0	0x41976242	18.922977
1	0x419a5566	19.291698
2	0x415bcb37	13.737113
3	0x42186587	38.099148
4	0x40c5bbbe	6.1791677
5	0x4222ab68	40.66739
6	0x41843eaa	16.530598
7	0x41a59107	20.695814
8	0x40ed8802	7.4228525
9	0x4222cb66	40.69863
10	0x419ece1f	19.850645
11	0x41c33748	24.401993
12	0x4200a9a5	32.16567
13	0x429f2447	79.570854
14	0x41c0f1f1	24.118135
15	0x417005eb	15.001445
16	0x41dc43b0	27.53305
17	0x41f5ff5d	30.74969
18	0x4200d848	32.211212
19	0x41dc7c9a	27.56084
20	0x41ebf24a	29.493305
21	0x41b61cf5	22.76414
22	0x41bc5099	23.539354
23	0x41288f9a	10.535059
24	0x41b17069	22.179888
25	0x41808299	16.063768
26	0x421f5ab7	39.83859
27	0x41994eb1	19.163424
28	0x41cbdd3d	25.483027
29	0x419e44e1	19.783632
30	0x41b16765	22.175486
31	0x4164e9bc	14.307064

layer1.0.weight f4 [64, 32, 3, 3]
0	0xbd481813	-0.048851084
1	0x3cbf4997	0.02335052
2	0xbc6e294c	-0.014536213
3	0xbc053244	-0.00812966
4	0xbcf51b1d	-0.029920155
5	0x3d4dc99b	0.050241094
6	0xbc6cd442	-0.014454903
7	0x3ca9d2fc	0.020730488
8	0x3c1fcba2	0.00975314
9	0x3cccea08	0.025013939
10	0xbcbf9ab8	-0.023389205
11	0x3d21e202	0.03952218
12	0xbc8a4ab3	-0.016881322
13	0xbd5bf419	-0.053699587
14	0x3d20b9a4	0.03923954
15	0xbcbef6ba	-0.023311008
16	0xbd649f84	-0.05581619
17	0x3cbc9f02	0.02302504
18	0xbd7eedf9	-0.062238667
19	0xbcb8e164	-0.022568412
20	0x3c89d67a	0.016825903
21	0x3cab3cbd	0.020902986
22	0xbd195325	-0.03743281
23	0x3b085e30	0.0020808093
24	0xbcc3f53c	-0.023920648
25	0xbd80bca7	-0.062859826
26	0xbc23b8c1	-0.009992779
27	0x3c45ad6d	0.012065274
28	0x3cda97c7	0.026683701
29	0xbd642fc2	-0.055709608
30	0x3c11150f	0.008855118
31	0x3d490e07	0.049085643
32	0xbd1e26c8	-0.038611203
33	0x3d11e437	0.035618033
34	0x3c04b9c9	0.008100935
35	0xbd498e79	-0.04920814
36	0xbd2211c7	-0.039567735
37	0xbb1dc429	-0.002407322
38	0xbd210f6b	-0.039321344
39	0xbd41d922	-0.047326215
40	0x3c89fbde	0.016843732
41	0x3ca38b0c	0.019963764
42	0x3c86e18f	0.016464977
43	0x3d2b363f	0.04179978
44	0x3d51258c	0.051061198
45	0x3c525d2a	0.012839595
46	0x3c46a6ee	0.01212476
47	0xbd5ae610	-0.05344206
48	0xbd67cec0	-0.056593657
49	0x3c53010f	0.01287867
50	0xbbc638c6	-0.0060492484
51	0x3cd52f4e	0.026023533
52	0xbce34912	-0.027744804
53	0x3c9b2ac9	0.0189413
54	0x3bf61bd1	0.00751064
55	0x3ad4f1cf	0.0016246381
56	0x3c25b92d	0.01011495
57	0xbd5af5cc	-0.053457066
58	0x3cfdea8f	0.030995635
59	0x3d4c25da	0.049840786
60	0xbc99ee83	-0.018790489
61	0xbb6454e5	-0.003484064
62	0xbd2d1c22	-0.042263158
63	0x3cc8717c	0.024468176
64	0x3d04c06d	0.032410074
65	0xbd3af636	-0.04564496
66	0x3c6c2ce1	0.014414997
67	0x3d223cad	0.039608646
68	0xbd7894d4	-0.06068881
69	0x3d2efc84	0.042721286
70	0xbcd7745a	-0.026300598
71	0xbcfd9a08	-0.030957237
72	0x3d1c54c3	0.038166773
73	0x3cce6938	0.025196657
74	0xbb98d824	-0.004664438
75	0x3d0b45d9	0.03400216
76	0xbcf249f0	-0.029576272
77	0x3c30d5f4	0.010793198
78	0xbd4b611a	-0.04965315
79	0xbb9bcadc	-0.0047544073
80	0xbce8b612	-0.02840713
81	0xbc9f05cf	-0.01941195
82	0xbd80cfe5	-0.06289653
83	0xbc966d0b	-0.018362543
84	0x3cce6ef1	0.025199385
85	0xbc76deac	-0.015067738
86	0xbd165545	-0.036702413
87	0xbd1ad29f	-0.03779852
88	0x3d26b759	0.040702198
89	0xbd2ff87b	-0.04296158
90	0xbd0909c0	-0.033456564
91	0xbd424cc1	-0.04743648
92	0xbce0ae31	-0.027426811
93	0xbd3c12b6	-0.04591628
94	0xbc1ce399	-0.009575748
95	0x3d159eb6	0.03652831
96	0x3ca75668	0.020426944
97	0x3b7b961b	0.003838903
98	0x3cf1db52	0.029523525
99	0xbc421b15	-0.011847277
100	0xbc3eeb47	-0.011652774
101	0x3cc85a24	0.024457045
102	0xbc90bd9a	-0.017668534
103	0xbd0d3e96	-0.034483515
104	0xbd3f6d0c	-0.046734855
105	0xbd839e50	-0.0642668
106	0x3c1b94db	0.009495939
107	0xbd128853	-0.03577454
108	0x3d1a50e5	0.037674803
109	0x3d0f36dc	0.034964427
110	0x3d4ebb80	0.050471783
111	0x3d55195c	0.052026138
112	0x3d4f7b0c	0.050654456
113	0xbcbe87e7	-0.023258163
114	0xbca167ea	-0.01970287
115	0x3cb4e28b	0.02208068
116	0x3d07fa8b	0.03319792
117	0x3d200a21	0.03907216
118	0x3cb2d64f	0.021830706
119	0xbc956da1	-0.018240752
120	0xbd52f801	-0.051506046
121	0xbd86d884	-0.06584266
122	0xbce80d32	-0.028326605
123	0x3b951fde	0.004550918
124	0xbd78a613	-0.060705256
125	0x3d0f5f05	0.035002727
126	0x3c5cd2b7	0.013477973
127	0x3cd97793	0.026546275
128	0x3d03505f	0.03205907
129	0xbad03a50	-0.0015886519
130	0xbc3f36ca	-0.011670778
131	0x3d0ee558	0.034886688
132	0xbcb32dcd	-0.021872425
133	0xbd691195	-0.056901533
134	0xbd04570e	-0.032309584
135	0x3d74f549	0.059804235
136	0xbc9e372f	-0.019313423
137	0x3b52b8c6	0.003215359
138	0x3bd341cb	0.006447052
139	0x3d0aa2a1	0.0338465
140	0x3c0a500b	0.008441935
141	0xbd1dca78	-0.038523167
142	0x3cdd8fc8	0.0270461
143	0x3d3407be	0.043952696
144	0xbd842e29	-0.06454117
145	0x3d1c8810	0.038215697
146	0xbd82c62a	-0.06385453
147	0xbc548b3a	-0.012972647
148	0xbca79564	-0.020456977
149	0xbb9ac5bf	-0.00472328
150	0xbd297748	-0.04137352
151	0xbd464023	-0.04840101
152	0xbc3b1730	-0.011419103
153	0xbc356c35	-0.011073162
154	0x3d304c9f	0.04304182
155	0x3cea5257	0.028603716
156	0x3a3dae2c	0.00072357315
157	0xbd3e65d9	-0.04648385
158	0x39a6e658	0.00031833607
159	0xbd4786a0	-0.048712373
160	0x3d007b05	0.03136732
161	0x3cfaec0c	0.030630134
162	0x3d356f52	0.044295616
163	0xbc4d6730	-0.012536809
164	0x3d1b8f0b	0.037978213
165	0xbcdae753	-0.026721632
166	0x3d29a8a7	0.041420605
167	0xbc9b847d	-0.018984074
168	0xbd1c82b0	-0.03821057
169	0x3c8fb51c	0.017542414
170	0xbc800790	-0.015628606
171	0x3a44f3cc	0.0007513135
172	0xbbcf4a21	-0.0063259755
173	0xbd44fc30	-0.048092067
174	0x3d685108	0.056717902
175	0x3cf07048	0.029350415
176	0x3d2b246c	0.04178278
177	0xbd4e9b9a	-0.050441362
178	0x3c2857f6	0.010274878
179	0xbcfdeaf8	-0.03099583
180	0xbd1f8d20	-0.038952947
181	0xbd4591f1	-0.048234884
182	0xbd2890a4	-0.041153565
183	0x3c3c2055	0.011482318
184	0x3c6ad84d	0.014333797
185	0xbc4e4cce	-0.012591554
186	0xbd43f82c	-0.047844097
187	0x3ca494d9	0.020090507
188	0xbc8771bb	-0.016533723
189	0xbcc32603	-0.023821836
190	0xbd154c49	-0.036449704
191	0xbd0f2ae1	-0.034953002
192	0xbd59a309	-0.053133998
193	0x3cbe36e0	0.023219526
194	0x3c572586	0.013131505
195	0x3d4eb4a5	0.050465245
196	0xbcd58d44	-0.026068337
197	0xbb48bc5f	-0.0030629856
198	0xbd5b7e6b	-0.05358736
199	0xbbcd0aeb	-0.006257405
200	0x3d4716be	0.048605673
201	0xbd6996ed	-0.0570287
202	0x3c967c84	0.01836992
203	0xbd2a4256	-0.04156717
204	0x3d5d55be	0.05403685
205	0x3d4bdb47	0.049769666
206	0xbc2e44bd	-0.010636506
207	0xbd6b732e	-0.05748289
208	0xbba9d068	-0.0051823147
209	0x3d4e3a4a	0.050348558
210	0xbd17784b	-0.036979955
211	0xbd27deac	-0.04098384
212	0x3ba5d1b0	0.005060397
213	0xbd7e3423	-0.06206144
214	0xbcee04e6	-0.02905507
215	0x3d26b393	0.0406986
216	0x3d345cb4	0.04403372
217	0xbd272e5f	-0.040815707
218	0x3bbb998e	0.0057250923
219	0x3a34b7db	0.00068938517
220	0xbd0a0bbe	-0.033702604
221	0xbd4ea4fc	-0.05045031
222	0xbcef99f0	-0.029248208
223	0xbd0455ae	-0.032308273
224	0x3d2a3a9a	0.041559793
225	0xbd263070	-0.040573537
226	0x3d4c3381	0.049853805
227	0xbd7c58f3	-0.061608266
228	0x3d1f505b	0.038894992
229	0x3b759186	0.0037470772
230	0xbcea5fd0	-0.02861014
231	0xbd3b2c29	-0.04569641
232	0xbcb2b8b6	-0.021816593
233	0x3b1a96bc	0.002358838
234	0x3a3e016a	0.00072481355
235	0x3d4dfd49	0.05029038
236	0x3d113f9d	0.035461057
237	0xbcbe51e0	-0.0232324
238	0xbc90cc28	-0.017675474
239	0xbc024ed2	-0.007953363
240	0x3d570d6b	0.05250303
241	0xbd71f820	-0.05907452
242	0xbd285efa	-0.0411062
243	0xbd55a1c2	-0.052156217
244	0x3c2f2d5d	0.010691968
245	0xbcd6cfe2	-0.026222173
246	0x3c60dceb	0.013724546
247	0x3c8a9759	0.016917871
248	0xbcd5a686	-0.026080381
249	0xbcb0fd8d	-0.021605277
250	0xbd5cf4ab	-0.05394427
251	0xbd4c171d	-0.04982673
252	0xbc505616	-0.012715837
253	0xbb6f28c1	-0.0036492797
254	0xbd3797f0	-0.044822633
255	0xbbaec3f1	-0.0053334166

layer1.0.bias f4 [64]
0	0x3b7a8213	0.0038224503
1	0xbd0fb112	-0.035080977
2	0x3c520e1f	0.01282075
3	0x3bc6a68c	0.0060623344
4	0x3d26bf6f	0.04070991
5	0x3d32791c	0.04357253
6	0x3d6bfd66	0.057614706
7	0xbd46951e	-0.048482053
8	0xbc1a0cbf	-0.009402453
9	0xbce59c34	-0.028028585
10	0xbd3bf8bd	-0.045891512
11	0x3c78da0f	0.015188708
12	0xbd33a5c9	-0.043859277
13	0x3d35c47b	0.04437683
14	0x3d017d13	0.03161342
15	0x3d2d1f2c	0.042266056
16	0xbd3ea345	-0.046542425
17	0xbd1ebe05	-0.038755435
18	0x3cf9d61a	0.0304976
19	0xbbb12ba7	-0.005406815
20	0xbd12ffb1	-0.035888378
21	0xbd6166be	-0.055029623
22	0x3cb933b8	0.02260767
23	0xbd6b4934	-0.05744286
24	0xbd1daf92	-0.038497515
25	0x3d575e8c	0.0525804
26	0xbd45dae8	-0.04830447
27	0x3d629ee3	0.055327307
28	0xbd706577	-0.058690514
29	0x3d351048	0.04420498
30	0xbd334d32	-0.04377479
31	0xbcf7a674	-0.030230738
32	0xbcecc40f	-0.028902082
33	0x3d4fb487	0.050709274
34	0xbd23cdcd	-0.03999119
35	0xbc9e173d	-0.01929819
36	0xbd42efd4	-0.047592
37	0xbd2a8da8	-0.041639
38	0xbc97073f	-0.018436072
39	0x3ce1a37c	0.027543776
40	0x39ca4036	0.00038576283
41	0x3ae62d8e	0.0017561184
42	0xbbcce5e7	-0.0062529924
43	0x3c5d306c	0.013500314
44	0x3b2ab6fc	0.0026049009
45	0xbc8be42a	-0.01707657
46	0x3c960f50	0.018317848
47	0x3cf9d8f5	0.030498961
48	0x3c9d5a2a	0.019208033
49	0x3bcd9193	0.0062734573
50	0xbce67166	-0.028130244
51	0x3c530fc1	0.012882174
52	0x3ce3843b	0.027773013
53	0xbc5f2161	-0.013618798
54	0x3cbec159	0.023285555
55	0xbcf19580	-0.029490232
56	0xbd44b697	-0.048025694
57	0x3d532422	0.05154813
58	0xbcf81ec8	-0.030288115
59	0xbc1ee5d9	-0.009698355
60	0xbd1f2421	-0.038852815
61	0xbd5cd340	-0.0539124
62	0xbd0490b0	-0.032364547
63	0x3cb5c21e	0.022187289

layer1.1.weight f4 [64]
0	0x3f7ea92f	0.99476904
1	0x3f80413a	1.0019906
2	0x3f82969e	1.0202215
3	0x3f7d09bd	0.98842984
4	0x3f7da306	0.9907688
5	0x3f821503	1.0162662
6	0x3f7cb0f5	0.98707515
7	0x3f80071b	1.0002168
8	0x3f7fb51e	0.9988574
9	0x3f81499c	1.0100589
10	0x3f811692	1.0085013
11	0x3f7d7315	0.99003726
12	0x3f81989b	1.0124696
13	0x3f7ee058	0.9956107
14	0x3f7e8982	0.9942857
15	0x3f815077	1.0102681
16	0x3f7ee7ed	0.9957264
17	0x3f812287	1.0088662
18	0x3f8188ad	1.0119835
19	0x3f7edb2b	0.99553174
20	0x3f7f23be	0.99663913
21	0x3f7e7a54	0.9940541
22	0x3f7d40b2	0.9892684
23	0x3f820eda	1.0160782
24	0x3f7f00c6	0.99610555
25	0x3f809700	1.0046082
26	0x3f7e61ce	0.9936799
27	0x3f7eb42f	0.9949369
28	0x3f7d1407	0.98858684
29	0x3f7d4a53	0.98941535
30	0x3f81ed3b	1.0150522
31	0x3f7ca9b6	0.9869646
32	0x3f7dcd9a	0.9914185
33	0x3f811fda	1.0087845
34	0x3f7ed45e	0.99542797
35	0x3f805fae	1.0029199
36	0x3f80c120	1.0058937
37	0x3f7de8c7	0.99183315
38	0x3f7ee6d6	0.9957098
39	0x3f7dac18	0.9909072
40	0x3f80616b	1.002973
41	0x3f7cfad7	0.9882025
42	0x3f7f15b9	0.9964252
43	0x3f7c1f7a	0.9848553
44	0x3f7f369a	0.9969269
45	0x3f802138	1.0010138
46	0x3f7f5a1e	0.9974688
47	0x3f800f45	1.000466
48	0x3f7f586d	0.997443
49	0x3f7bdc36	0.9838289
50	0x3f7d20a2	0.9887792
51	0x3f7cb8f5	0.9871972
52	0x3f7f843a	0.99811137
53	0x3f81fe6d	1.015577
54	0x3f80c0b6	1.0058811
55	0x3f7f105c	0.9963434
56	0x3f80581b	1.0026888
57	0x3f80845c	1.0040393
58	0x3f7effb5	0.9960893
59	0x3f80f9f4	1.007628
60	0x3f7dd505	0.99153167
61	0x3f81680a	1.0109875
62	0x3f7d5530	0.9895811
63	0x3f81aca1	1.0130807

layer1.1.bias f4 [64]
0	0x3afda881	0.0019352586
1	0x3c450773	0.012025702
2	0x3c951500	0.01819849
3	0xbc62e902	-0.013849499
4	0x3bc8e4f8	0.006130811
5	0x3c98abaf	0.018636553
6	0xbc52b0e0	-0.012859553
7	0x3c0e7c44	0.008696619
8	0x3beb597a	0.0071822973
9	0x3c1e9db6	0.009681156
10	0x3c7a6184	0.015282039
11	0x3c1d8457	0.009614072
12	0x3c5f97c5	0.0136470245
13	0x3b202531	0.002443623
14	0xbb2a5bbb	-0.0025994617
15	0x3c515f9b	0.012779142
16	0xbb162e6c	-0.0022915853
17	0x3c2c50a0	0.010517269
18	0x3c927eb7	0.017882688
19	0x3ab84a1d	0.0014060173
20	0x39db7a12	0.00041861885
21	0xbba3423d	-0.0049822615
22	0xbc1237de	-0.008924453
23	0x3c90e014	0.017684974
24	0x3bcc14ea	0.006228079
25	0x3c4b8fcd	0.0124244215
26	0xbc1bd20a	-0.009510526
27	0xbbb50bcb	-0.0055250875
28	0xbc500e68	-0.012698747
29	0xbc3e80b9	-0.01162737
30	0x3c6e1461	0.014531226
31	0xbc6480c2	-0.013946714
32	0xbb9bdaea	-0.004756321
33	0x3c7d8cf6	0.015475502
34	0x3c03a9c9	0.008036085
35	0x3a1929c2	0.0005842709
36	0x3c136ca0	0.008998066
37	0xbb1aefb1	-0.0023641402
38	0xbaa7b12c	-0.001279389
39	0xbabdf98e	-0.0014493929
40	0xbb12ba24	-0.002238878
41	0xbc488a20	-0.012239963
42	0x3ab0fcdf	0.0013503096
43	0x3b9014c8	0.0043970086
44	0xbc475954	-0.012167294
45	0x3b3e168d	0.002900514
46	0xbafa2e24	-0.0019087237
47	0x3b817fd8	0.0039520077
48	0xbc172046	-0.009224003
49	0xbc058ccb	-0.008151243
50	0x3bd50773	0.006501132
51	0x3bf1019d	0.0073549286
52	0xbaf06bfa	-0.0018342726
53	0x3c39bc37	0.011336378
54	0x3bc832b1	0.0061095585
55	0xb9dabbaa	-0.0004172002
56	0x3b92b091	0.0044766148
57	0x3c0b8971	0.008516655
58	0xb8f3b7f8	-0.0001162141
59	0x3c194022	0.009353669
60	0xba2164a4	-0.0006156659
61	0x3c4f93f0	0.012669548
62	0xbbf5a82e	-0.007496855
63	0x3c4c6d82	0.012477281

layer1.1.running_mean f4 [64]
0	0xbf814ffc	-1.0102534
1	0xbfa77a53	-1.3084205
2	0xbf25e366	-0.6480011
3	0xbf4ea306	-0.80717504
4	0xbf36ce0a	-0.7140814
5	0xbe60edfc	-0.21965784
6	0x3e5afe38	0.2138604
7	0x3dca3d5f	0.09874987
8	0xbf7fe228	-0.9995446
9	0xbf494b19	-0.78630215
10	0x3dfb0387	0.12256532
11	0xbf5536d2	-0.83286774
12	0xbec5944c	-0.38589704
13	0xbea6847c	-0.32522953
14	0xbeeaa951	-0.45832303
15	0xbe67860a	-0.22609726
16	0x3ed6f1d5	0.41981378
17	0x3e49cb04	0.1970635
18	0xbe6927a1	-0.22769023
19	0x3f0fff42	0.5624887
20	0x3f3c8622	0.7364217
21	0xbe9e5228	-0.30922055
22	0x3ebb437d	0.36574927
23	0xbc9e4428	-0.019319609
24	0xbd838d42	-0.06423427
25	0xbf2f4550	-0.6846514
26	0xbecd8221	-0.40138343
27	0xbf714eb0	-0.9426069
28	0xbf8496ec	-1.0358558
29	0x3efb6286	0.49098605
30	0xbf333556	-0.7000326
31	0xbe5edd8e	-0.21764204
32	0xbf9aa517	-1.2081631
33	0xbf20b44c	-0.6277511
34	0xbee2e44d	-0.44314805
35	0xbd8933e6	-0.06699352
36	0x3e77c24b	0.2419521
37	0xbe163460	-0.14668417
38	0x3f3c9e17	0.73678726
39	0x3ed60256	0.41798657
40	0xbeacdac8	-0.33760667
41	0xbe5ea1c9	-0.21741404
42	0x3eef52bd	0.46742812
43	0xbed6833d	-0.41897002
44	0x3f524a66	0.82144773
45	0x3f84ff94	1.0390496
46	0xbf035445	-0.5130046
47	0xbf39ba13	-0.7254955
48	0x3f07a9cb	0.5299346
49	0x3ec4b6d8	0.3842075
50	0xbf0a5e75	-0.5405038
51	0xbf428d3b	-0.7599675
52	0xbde3f445	-0.11130575
53	0xbe9c58af	-0.3053641
54	0xbf05e8b7	-0.5230822
55	0xbf19575c	-0.59898925
56	0xbf81550d	-1.010408
57	0xbf48c231	-0.7842131
58	0x3f8747fd	1.0568844
59	0xbee5e5ff	-0.44902036
60	0x3f9cdb40	1.225441
61	0xbe7fe7e6	-0.24990806
62	0x3f6b2c04	0.9186404
63	0xbf1f00ac	-0.621104

layer1.1.running_var f4 [64]
0	0x3f08ac40	0.5338783
1	0x3f4b8fc5	0.7951625
2	0x3f158e6e	0.58420455
3	0x3ecaa6f2	0.39580494
4	0x3f070618	0.52743673
5	0x3f5fc2b2	0.87406456
6	0x3f0fe0ed	0.56202585
7	0x3ea8fb0d	0.33004037
8	0x3f04068c	0.5157249
9	0x3efa1fd4	0.48852408
10	0x3f0fe16a	0.5620333
11	0x3f185b56	0.5951437
12	0x3f32a2b2	0.69779503
13	0x3e8ecb38	0.2788942
14	0x3e99896c	0.29987657
15	0x3eff26da	0.4983433
16	0x3f2087e7	0.6270737
17	0x3eea3a99	0.4574783
18	0x3f2ee144	0.6831248
19	0x3ee7d314	0.45278227
20	0x3f16a408	0.5884404
21	0x3eb4fa1a	0.35347062
22	0x3ee14c94	0.44003737
23	0x3f0595cf	0.52181715
24	0x3f5147aa	0.81749976
25	0x3efff30d	0.4999012
26	0x3eb3aecb	0.35094294
27	0x3ed6db86	0.41964358
28	0x3f14a5ce	0.580655
29	0x3ed099ba	0.40742284
30	0x3f55121f	0.83230776
31	0x3ea118f9	0.31464365
32	0x3f5dbf30	0.86619854
33	0x3f0399c0	0.5140648
34	0x3ef6bd2d	0.48191205
35	0x3ebf6b20	0.37386417
36	0x3efc90fa	0.49329358
37	0x3edb2c14	0.42807066
38	0x3ef85ee0	0.48509884
39	0x3e965731	0.29363397
40	0x3f0d3471	0.55158144
41	0x3e8d2a2d	0.2757124
42	0x3eeb19d2	0.45918137
43	0x3eea20ed	0.45728245
44	0x3ebc79d0	0.36811686
45	0x3f0a8b17	0.54118484
46	0x3f19fbdb	0.60149926
47	0x3ece27ac	0.40264642
48	0x3ea7215d	0.32642642
49	0x3e85b001	0.26110843
50	0x3ef4c4be	0.47806352
51	0x3f249f57	0.64305633
52	0x3f7396e3	0.9515211
53	0x3f1156dd	0.5677317
54	0x3f1ae60a	0.6050726
55	0x3f19df47	0.6010632
56	0x3f0c112a	0.5471369
57	0x3ef728e6	0.4827339
58	0x3f37e622	0.7183553
59	0x3ef7dae9	0.48409203
60	0x3f44d09e	0.76880825
61	0x3f50b067	0.8151917
62	0x3f34efa2	0.7067815
63	0x3ef09bb2	0.46993786

layer1.3.fc.0.weight f4 [4, 64]
0	0x3cd68c11	0.026189836
1	0x3db6bc61	0.08922649
2	0xbdfe49e5	-0.12416438
3	0xbc43162d	-0.011907143
4	0x3c47269b	0.0121552
5	0xbdc2f6f6	-0.0951976
6	0x3ccdd4e0	0.02512592
7	0xbd477518	-0.048695654
8	0x3d975c5d	0.07390664
9	0xbd83631c	-0.06415388
10	0x3ce2b2fd	0.027673239
11	0x3bc742a4	0.006080942
12	0xbde0a888	-0.10969645
13	0x3cc6e104	0.024277218
14	0xbd7e827c	-0.06213616
15	0x3dc4b4bb	0.09604784
16	0x3c311379	0.010807865
17	0xbdec3475	-0.11533443
18	0xbe0032e5	-0.12519415
19	0x3d621e9f	0.055204984
20	0x3d301aed	0.04299443
21	0x3d1a2ed8	0.03764233
22	0x3da58c66	0.080834195
23	0x3ca12434	0.019670583
24	0xbddb637b	-0.10712334
25	0xbb080ec2	-0.002076075
26	0x3c337383	0.010952833
27	0xbdd47971	-0.103747256
28	0xbd75f707	-0.060050037
29	0xbdd1bef0	-0.102414966
30	0xbdb0311c	-0.08603117
31	0x3d04793e	0.032342188
32	0xbd9d3282	-0.07675649
33	0x3d4bafa9	0.04972807
34	0x3daae0e5	0.083436765
35	0xbdb7f780	-0.08982754
36	0xbb5fa847	-0.00341274
37	0xbd0e0b7d	-0.034678925
38	0x3d576c4d	0.052593518
39	0xbde49c0b	-0.11162575
40	0x3bb1fa20	0.0054314286
41	0x3d62616b	0.055268686
42	0xbdd63058	-0.104584396
43	0x3dc47e82	0.09594442
44	0x3dbc8737	0.09205478
45	0xbe052d96	-0.13005671
46	0x3c5b8377	0.013398043
47	0x3bbbec68	0.005734969
48	0x3bbbf816	0.0057363613
49	0xbd9b3a21	-0.075794466
50	0x3c7e6c1a	0.015528703
51	0x3dde6535	0.108591475
52	0x3d479a77	0.048731294
53	0xbca25618	-0.019816443
54	0x3cf3d932	0.029766653
55	0x3d717b6c	0.058955595
56	0xbcefc77a	-0.029269923
57	0xbe075f8f	-0.13220046
58	0xbe045126	-0.1292158
59	0x3da8dad9	0.08244867
60	0xbd8ccc06	-0.06874852
61	0x3d29d177	0.041459527
62	0x3c99dfcf	0.018783478
63	0x3d7ee979	0.062234376
64	0xbdf9bb66	-0.121939465
65	0x3cc1d2d0	0.023660094
66	0xbc779a70	-0.015112504
67	0xbde8e0fc	-0.11371037
68	0xbc463190	-0.012096778
69	0xbcda5c08	-0.026655212
70	0xbdb441de	-0.08801626
71	0x3daa2904	0.08308604
72	0x3d0f4c40	0.034984827
73	0x3dd7fafe	0.1054592
74	0x3dc6f548	0.097147524
75	0x3bf2a000	0.0074043274
76	0x3d87df66	0.06634407
77	0xbd477758	-0.0486978
78	0xbdffb83e	-0.12486313
79	0xbda7f7fc	-0.08201596
80	0x3d175970	0.03695053
81	0x3d9e372a	0.077253655
82	0xbd89eefa	-0.06735034
83	0x3cf55820	0.029949248
84	0x3ca85760	0.020549476
85	0xbda5ef10	-0.08102238
86	0xbd919fd6	-0.071105644
87	0xbd30f274	-0.04319997
88	0xbb01b680	-0.0019792616
89	0x3d8f299a	0.06990357
90	0xbdbf2372	-0.093329325
91	0xbc043c20	-0.008070976
92	0xbd3aa0b0	-0.0455634
93	0xbdc59d30	-0.09649122
94	0x3cee9a30	0.029126257
95	0xbdad3462	-0.08457257
96	0xbdfab914	-0.12242332
97	0x3d06b39c	0.032886133
98	0xbd3cf304	-0.046130195
99	0x3db7d28a	0.08975704
100	0xbdd5612c	-0.10418925
101	0xbd4cd670	-0.05000919
102	0xbdcf701a	-0.101288036
103	0xbdc85934	-0.09782639
104	0xbd618d4c	-0.05506639
105	0xbd709e60	-0.05874479
106	0x3b0ce680	0.0021499693
107	0x3cb4a830	0.022052854
108	0x3d3cc3c8	0.04608515
109	0x3d8fb71a	0.07017346
110	0xbd9b5324	-0.07584217
111	0xbdc07b76	-0.09398548
112	0x3cdd6548	0.027025834
113	0x3c6ca350	0.014443234
114	0x3c4a9200	0.012363911
115	0x3adbac00	0.0016759634
116	0x3b9224a0	0.0044599324
117	0x3d85066e	0.06495367
118	0x3dbbc8a2	0.09169127
119	0xbdb3885c	-0.08766243
120	0x3ca55d18	0.020185992
121	0xbdfb58b0	-0.12272775
122	0xbd819bb8	-0.06328529
123	0xbdec023e	-0.11523865
124	0x3c37fa20	0.011229068
125	0xbd8f988e	-0.07011519
126	0x3d775cb0	0.060391128
127	0x3cc49078	0.02399467
128	0xbd84859a	-0.06470795
129	0x3cba4425	0.022737572
130	0x3c86bb67	0.016446782
131	0x3d9f0677	0.07764905
132	0x3dadff56	0.08495967
133	0xbdccd3c0	-0.100013256
134	0x3dadf353	0.08493676
135	0x3c8db4f6	0.017298203
136	0x3dd3e64c	0.1034666
137	0x3d552785	0.052039642
138	0xbe030919	-0.12796439
139	0x3dd2bbf4	0.102897555
140	0x3dc33e5f	0.09533381
141	0x3d0f2eae	0.034956627
142	0x3d638cf5	0.05555435
143	0xbdbe3722	-0.092878595
144	0xbe04d56c	-0.12972039
145	0xbce5f642	-0.028071526
146	0xbcfee6b5	-0.031115869
147	0x3c7eff97	0.015563867
148	0xbdc06bf6	-0.09395592
149	0x3d5b06d1	0.053473298
150	0xbcf83c33	-0.030302143
151	0xbd9860eb	-0.07440361
152	0xbdf888ea	-0.12135489
153	0x3c6c2837	0.014413885
154	0xbc9c68ae	-0.019092884
155	0x3d177c9a	0.036984064
156	0xbd5db305	-0.054125804
157	0xbd1b90c0	-0.03797984
158	0xbd178b97	-0.036998358
159	0x3d840360	0.06445956
160	0x3dc077a1	0.093978174
161	0x3dbb2d52	0.091395035
162	0x3d7e560e	0.062093787
163	0xbc76e6cf	-0.0150696775
164	0xbe03b086	-0.12860307
165	0x3df26b97	0.118369274
166	0x3deb744d	0.11496792
167	0xbd6636a7	-0.056204464
168	0x3d8d75f6	0.06907265
169	0xbde33790	-0.11094582
170	0x3d846a0d	0.0646554
171	0xbd6b7618	-0.05748567
172	0xbccf1f91	-0.025283607
173	0x3df1172d	0.117719986
174	0xbdb29f0e	-0.087217435
175	0xbd950e16	-0.07278077
176	0x3cef9764	0.029246993
177	0xbd9aded0	-0.07562029
178	0xbd9607bc	-0.07325694
179	0x3dc03e0f	0.09386837
180	0x3c262abe	0.0101420265
181	0x3c60096d	0.013674122
182	0x3d9c641d	0.076362826
183	0x3dd22b0f	0.10262119
184	0x3dff80de	0.12475751
185	0x3dfad179	0.12246985
186	0xbc133aed	-0.008986217
187	0x3aeacf38	0.0017914539
188	0x3c4ccce1	0.012500019
189	0x3ca62da3	0.020285433
190	0xbcb0e9ba	-0.021595825
191	0xbc895444	-0.016763814
192	0x3c3fca2b	0.011705915
193	0x3d977e12	0.07397093
194	0xbd452107	-0.0481272
195	0x3c5fb955	0.013655026
196	0xbd3740a7	-0.04473939
197	0x3dd0be8b	0.10192593
198	0x3d57f354	0.05272229
199	0xbcf198f6	-0.029491883
200	0xbd70f82b	-0.05883042
201	0xbdccfbf8	-0.10008997
202	0x3da5ce56	0.08095996
203	0xbdcb1e97	-0.09917944
204	0x3d2b8e5d	0.041883815
205	0x3d324a58	0.04352793
206	0xbdc2236f	-0.09479415
207	0xbbeeb264	-0.0072844494
208	0xbdf9b5f2	-0.121929064
209	0xbd3920c4	-0.045197263
210	0xbd5623d0	-0.052280247
211	0x3da9d033	0.08291664
212	0x3d8f0bf5	0.069847025
213	0xbdf2028e	-0.118168935
214	0x3be27374	0.0069107357
215	0xbdad12a6	-0.084508225
216	0x3d8a9b6c	0.067679256
217	0xbdd07080	-0.10177708
218	0xbd909a4e	-0.07060681
219	0x3db7011e	0.0893576
220	0xbdd843a7	-0.10559779
221	0x3dbf3eb6	0.09338133
222	0x3d47fff5	0.048828084
223	0xbd6df1ec	-0.058092043
224	0x3d9324fa	0.07184787
225	0xbbb084ea	-0.0053869383
226	0x3c12c4ab	0.008958022
227	0x3d8c5845	0.068527736
228	0xbd43eabe	-0.04783129
229	0x3dbb2e3f	0.0913968
230	0xbdce4005	-0.100708045
231	0x3dd9d6ae	0.1063665
232	0x3d97603d	0.07391403
233	0x3dab1f80	0.083556175
234	0xbcba3670	-0.022731036
235	0xbdef1ae1	-0.116750486
236	0x3d4223cf	0.04739743
237	0xbdc37959	-0.095446296
238	0xbd8ed029	-0.06973297
239	0xbdcdc3e5	-0.100471295
240	0x3d84bb33	0.06481018
241	0xbdbff4c8	-0.0937286
242	0x3cc8c6f8	0.024508938
243	0xbd14f0a3	-0.0363623
244	0xbd5d7c18	-0.054073423
245	0xbdaed851	-0.08537353
246	0x3d93eff2	0.072235
247	0x3d960149	0.07324464
248	0x3df9a8bb	0.12190386
249	0xbde4935a	-0.111609176
250	0x3d173d33	0.0369236
251	0x3d94367a	0.07236953
252	0xbdf84fe0	-0.1212461
253	0xbcaee0ff	-0.02134752
254	0xbbd3e927	-0.006467003
255	0x3d8a5440	0.06754351

layer1.3.fc.2.weight f4 [64, 4]
0	0xbb06f20a	-0.0020591044
1	0xbec9c07a	-0.3940466
2	0x3ede00ab	0.43359885
3	0xbe82c2da	-0.25539285
4	0x3ed98c75	0.42489973
5	0xbe416dc0	-0.18889523
6	0x3ef21d0e	0.47287792
7	0x3da34ee1	0.07974029
8	0xbeb346a3	-0.3501483
9	0xbef9228e	-0.48659176
10	0x3e5d92ee	0.2163808
11	0x3e3eb31a	0.1862301
12	0x3d89a110	0.06720173
13	0xbef4973a	-0.47771627
14	0x3ede5a62	0.43428332
15	0xbec18a1c	-0.37800682
16	0x3ef1fc3f	0.4726276
17	0xbc733800	-0.014844894
18	0xbd727dc2	-0.059201963
19	0x3d373abc	0.044733748
20	0xbe0f40eb	-0.13989608
21	0xbdb08c10	-0.08620465
22	0xbde5c609	-0.11219413
23	0xbe8dcf44	-0.27697194
24	0xbe6ca7ce	-0.23110887
25	0xbd168f80	-0.036757946
26	0xbed7287a	-0.4202307
27	0x3ecba729	0.3977597
28	0x3d773738	0.060355395
29	0x3e37436c	0.17896813
30	0xbdfa9212	-0.12234892
31	0xbcce52ab	-0.025185904
32	0x3e4dfe29	0.20116486
33	0x3cfe2200	0.031022072
34	0xbe5cd56d	-0.2156579
35	0x3e9ac06a	0.30224925
36	0x3e0c559b	0.13704531
37	0x3e14d8bc	0.14535803
38	0x3e6fcd93	0.23418264
39	0xbedf89dc	-0.43659866
40	0xbeb74622	-0.35795695
41	0x3ede36c8	0.4340117
42	0x3e49cc6e	0.1970689
43	0x3e96024a	0.2929862
44	0x3e8bebd3	0.27328357
45	0x3d4fef30	0.050765216
46	0x3e95be14	0.2924658
47	0xbf021fbc	-0.5082967
48	0xbee82828	-0.45343137
49	0xbd385b20	-0.04500878
50	0xbe7845ca	-0.24245372
51	0x3e60327f	0.21894263
52	0x3ed44207	0.41456625
53	0xbe65e09c	-0.22448963
54	0x3ed8279b	0.42217717
55	0x3e9835e8	0.29728627
56	0x3eb07a84	0.34468472
57	0xbe529948	-0.20566285
58	0xbe0374df	-0.12837552
59	0x3e5be3ef	0.21473669
60	0xbe97029c	-0.29494178
61	0x3c94ab20	0.018148005
62	0x3e4ad3c3	0.19807343
63	0xbe8b3758	-0.2719066
64	0xbec8cd3c	-0.3921908
65	0xbe48995c	-0.19589752
66	0x3eb653a0	0.35610676
67	0x3ee7ac74	0.4524876
68	0xbda74c6f	-0.081688754
69	0xbec900de	-0.39258474
70	0xbe4ac650	-0.19802213
71	0xbea5dbc2	-0.32394224
72	0xbefd05c3	-0.49418458
73	0x3e927c8a	0.2861064
74	0xbe908863	-0.28229055
75	0x3eb6f37b	0.35732636
76	0x3ef7e272	0.48414952
77	0x3ee25a32	0.4420944
78	0x3e914155	0.28370157
79	0x3dd8513f	0.105623715
80	0x3d8d833e	0.06909798
81	0xbe18d538	-0.14925086
82	0xbc8e6ed3	-0.01738683
83	0x3d3381f2	0.043825097
84	0x3e5e206b	0.21692054
85	0xbe766bd8	-0.24064577
86	0x3d89c039	0.06726117
87	0x3d965507	0.073404364
88	0xbe2d04c0	-0.16896343
89	0x3ebb990a	0.36640197
90	0x3ee0e1cb	0.43922266
91	0xbe323d81	-0.17406274
92	0x3edfd21d	0.4371499
93	0xbdfff5c8	-0.12498051
94	0xbebb4e74	-0.36583292
95	0xbe48ce06	-0.19609842
96	0xbee643b7	-0.44973537
97	0xbef50eee	-0.47862953
98	0x3e9d8b63	0.30770406
99	0x3df5c6e8	0.12000829
100	0xbe77209c	-0.24133533
101	0x3d924088	0.071412146
102	0xbeadba93	-0.33931407
103	0x3ee65228	0.44984555
104	0xbb7894ba	-0.0037930445
105	0xbdd9caa8	-0.10634357
106	0x3eef04bc	0.466833
107	0xbe5b03a0	-0.21388102
108	0xbd6d198a	-0.057885684
109	0x3ed6c618	0.4194801
110	0xbce32d08	-0.027731434
111	0x3d9f47fd	0.077774025
112	0xbe6b7811	-0.2299502
113	0x3dcedaf8	0.10100359
114	0xbe7ee4bd	-0.24891944
115	0x3ea8d70b	0.32976565
116	0xbdae18b4	-0.085008055
117	0xbed6f148	-0.41980958
118	0x3e1b9d80	0.151968
119	0x3e9bf4e6	0.3046028
120	0x3e7d64b0	0.2474544
121	0x3effe384	0.49978268
122	0xbe8c4cd4	-0.27402365
123	0xbe822608	-0.2541964
124	0xbd5d9cf5	-0.054104764
125	0xbeb5c556	-0.35502118
126	0x3e70c1cc	0.23511428
127	0xbe29917c	-0.16559404
128	0xbe73ec5d	-0.23820634
129	0x3d846ce8	0.06466085
130	0x3e57e5c6	0.21083745
131	0xbe0843d4	-0.13307124
132	0x3b9e92f0	0.0048392937
133	0x3e001e40	0.1251154
134	0xbd22c407	-0.039737727
135	0x3e303a3a	0.17209712
136	0x3edc0fa6	0.4298069
137	0xbe30677c	-0.17226976
138	0x3ed7e760	0.42168713
139	0x3e9ce633	0.30644378
140	0xbec6d54e	-0.38834614
141	0x3e9de452	0.30838257
142	0x3e792117	0.24329029
143	0xbe726839	-0.2367257
144	0x3d6741d2	0.056459256
145	0x3d9e5328	0.077307045
146	0xbddec0df	-0.10876631
147	0xbd5ea686	-0.054358028
148	0xbefad469	-0.4899018
149	0xbdc047c0	-0.09388685
150	0x3ceff2d8	0.029290602
151	0x3b5b0f62	0.0033425917
152	0x3d29cdd5	0.041456062
153	0x3e728188	0.23682225
154	0x3d89105a	0.06692572
155	0x3eef90b6	0.46790093
156	0xbad15903	-0.0015971962
157	0xbec6b77a	-0.38811857
158	0xbe1ea0fc	-0.15491098
159	0xbe322b7a	-0.17399397
160	0xbed6bd23	-0.41941175
161	0xbcb5d440	-0.022195935
162	0x3e46b7a1	0.19405986
163	0xbd4ebb1f	-0.05047142
164	0xbebcb911	-0.36859944
165	0x3d57d2c0	0.05269122
166	0xbd81572e	-0.06315456
167	0xbebad78c	-0.36492574
168	0x3de93675	0.1138734
169	0xbe040f64	-0.12896496
170	0x3e620e1b	0.22075693
171	0xbde2a967	-0.11067467
172	0x3e65156e	0.22371456
173	0xbe9ba124	-0.30396378
174	0x3ee4f22f	0.4471602
175	0xbed8e0f4	-0.42359126
176	0x3e7d9bf6	0.24766526
177	0xbe07750c	-0.13228244
178	0x3ef5d952	0.48017365
179	0xbe744215	-0.23853333
180	0x3e7f5f1e	0.24938628
181	0xbd7a9750	-0.06117946
182	0xbeea300e	-0.45739788
183	0xbc9d67a6	-0.019214462
184	0xbd62a12b	-0.055329483
185	0x3e8bd24e	0.27308887
186	0xbdfe0eec	-0.1240519
187	0xbe094663	-0.13405757
188	0x3dee24f6	0.116281435
189	0xbe11e154	-0.14246112
190	0xbd6e2aaf	-0.058146175
191	0x3ead0cc9	0.33798817
192	0x3eaa5168	0.33265233
193	0x3d8caec0	0.068692684
194	0x3eb5f37f	0.35537335
195	0xbe2999ce	-0.16562578
196	0xbe0188a6	-0.12649783
197	0x3ecca346	0.39968318
198	0xbc5d1407	-0.013493544
199	0xbe95dd2f	-0.29270312
200	0xbe14bf23	-0.14526038
201	0xbe106170	-0.1409967
202	0xbe80d024	-0.251588
203	0x3eb1385b	0.34613308
204	0x3ed4a1b5	0.41529623
205	0xbe85255e	-0.2600507
206	0x3efb74bd	0.49112502
207	0x3c495b1d	0.0122897895
208	0x3ea883ea	0.32913142
209	0xbeb5871a	-0.35454637
210	0xbdc60d75	-0.096705355
211	0x3e947794	0.2899748
212	0xbed935a3	-0.42423734
213	0x3e06f290	0.13178468
214	0x3ebee10f	0.3728108
215	0x3d076459	0.033054683
216	0xbe8215c6	-0.25407237
217	0xbb92ec80	-0.0044837594
218	0xbe861c9c	-0.26193702
219	0xbe4509ec	-0.19242066
220	0x3e83c72c	0.25737894
221	0x3efba8d4	0.49152243
222	0xbda74ffc	-0.08169553
223	0x3ddada95	0.106862225
224	0xbef1d6fb	-0.4723433
225	0x3e9d6e00	0.30747986
226	0xbd43cc13	-0.047802042
227	0xbd91c4e7	-0.07117634
228	0xbe154ab9	-0.14579286
229	0x3eec1196	0.46107167
230	0x3e9bd1d1	0.30433515
231	0x3eddc237	0.43312237
232	0xbda2cfa2	-0.07949759
233	0x3e0463f0	0.12928748
234	0xbedafe9b	-0.42772374
235	0x3e47211a	0.19446221
236	0xbe149849	-0.14511217
237	0x3e50460c	0.20339221
238	0x3efd1477	0.49429676
239	0xbe65bb61	-0.2243476
240	0x3e131217	0.1436237
241	0x3cf52840	0.02992642
242	0xbb6747d1	-0.0035290609
243	0x3d4d4eab	0.05012385
244	0x3e10b7bf	0.14132594
245	0xbe6c659c	-0.23085636
246	0xbef80842	-0.484438
247	0xbea62cbc	-0.32456005
248	0x3ec20ac9	0.37898853
249	0x3eaee998	0.34162593
250	0x3e087d63	0.13329081
251	0xbecc35e2	-0.3988486
252	0x3a3b6204	0.00071480894
253	0xbeeaaaa2	-0.45833308
254	0xbd2a3ee7	-0.041563895
255	0xbeaf6fbc	-0.34264934

layer2.0.weight f4 [128, 64, 3, 3]
0	0x3c9275c7	0.017878426
1	0xbcbd83d0	-0.023134142
2	0x3c1e54b2	0.009663748
3	0xbccd7de3	-0.025084442
4	0x3d3dc974	0.0463347
5	0x3d14fb09	0.03637222
6	0xbc5ba9d8	-0.013407193
7	0xbcf67f79	-0.03009008
8	0xbbeab2fc	-0.00716245
9	0xbb915eac	-0.0044363346
10	0x3d429eeb	0.047514837
11	0x3d26548e	0.04060798
12	0xbceae86c	-0.02867528
13	0xbcd3f5ac	-0.025873981
14	0x3d0b9dd7	0.034086075
15	0x3cfc34ed	0.030786956
16	0xbb974d22	-0.0046173492
17	0xbca65ed1	-0.020308884
18	0xbc618a95	-0.013765951
19	0xbb79cba5	-0.0038115766
20	0x3cf03de9	0.029326396
21	0x3bb0edb4	0.00539943
22	0x3a88a02d	0.0010423713
23	0x3ced2dfb	0.02895259
24	0xbb09587c	-0.0020957282
25	0x3aa604d3	0.0012666233
26	0x3cc68d65	0.024237344
27	0x3d17dad3	0.03707392
28	0x3c56c73e	0.0131090265
29	0xbca702de	-0.02038711
30	0x3d00fa86	0.031488918
31	0x3d279545	0.04091384
32	0xbca49fad	-0.02009567
33	0x3d4b22b2	0.049593635
34	0x3d263bcd	0.040584374
35	0xbcaea88e	-0.021320608
36	0x3d42c26a	0.04754869
37	0x3b03ba62	0.0020100106
38	0x3ce5b641	0.028041007
39	0xbc860c43	-0.016363269
40	0xbcbdb068	-0.023155406
41	0x3d21e4ae	0.039524727
42	0xbc2d3b12	-0.0105731655
43	0xbc2a86d6	-0.010408124
44	0x3cb29234	0.02179823
45	0xbca4cd4f	-0.02011743
46	0xbd26306b	-0.04057352
47	0xbcae5916	-0.021282714
48	0x3bbb9172	0.0057241255
49	0x3d033f28	0.032042652
50	0x3ca62fcd	0.020286465
51	0xbc2294ff	-0.009923219
52	0xbca8cfa0	-0.020606816
53	0xbd099b3d	-0.033595312
54	0x3c9dfb1a	0.019284774
55	0xbd39e0aa	-0.045380272
56	0x3cb8bba2	0.022550408
57	0x3d16743b	0.03673194
58	0xbc810707	-0.015750421
59	0xbd0fdee6	-0.035124682
60	0xbb833f8c	-0.004005378
61	0x3bdc689e	0.0067263385
62	0x3c1f2785	0.009714012
63	0x3bd18f2c	0.0063952412
64	0x3ca9014f	0.020630507
65	0x3b3d2454	0.0028860765
66	0xbd36c56e	-0.044621877
67	0xbd0253a4	-0.031818047
68	0x3ba73c4a	0.0051036226
69	0xbae44aa8	-0.0017417269
70	0xbcaa12c7	-0.020760907
71	0xbafe7654	-0.0019413927
72	0x3d205bae	0.039149933
73	0xbd090090	-0.033447802
74	0xbbfd8f0b	-0.0077379993
75	0xbce3c121	-0.027802052
76	0xbc9caa13	-0.019124066
77	0xbc32c6bd	-0.010911641
78	0x3cd3b4d4	0.025843062
79	0x3d4abe65	0.04949798
80	0xbc2c9ba1	-0.010535152
81	0x3ceda0ec	0.029007398
82	0xbba3e31e	-0.0050014397
83	0xbcb395e0	-0.021922052
84	0xbcfbf75d	-0.0307576
85	0x3b964557	0.0045859027
86	0x3b27d0ef	0.0025606712
87	0x3c2cb3ec	0.010540944
88	0xbccadc43	-0.024763232
89	0xbcd9f932	-0.026608083
90	0xbc94ffe0	-0.018188417
91	0x3c5a1405	0.013310437
92	0xbcdd9a06	-0.027050983
93	0xbd250693	-0.040289473
94	0x3918867a	0.00014545946
95	0xbc352255	-0.011055549
96	0x3c06ed83	0.008235338
97	0xbc009678	-0.007848375
98	0xbd4905fb	-0.04907797
99	0xb9b20073	-0.0003395114
100	0xbcccc20a	-0.024994869
101	0x3d031e01	0.032011036
102	0xbc07bf83	-0.008285406
103	0x3d17e17b	0.03708027
104	0x3ce91f65	0.028457353
105	0x3d1c44d0	0.038151562
106	0xbbde6d49	-0.00678793
107	0x3d1e4186	0.038636707
108	0xbc8d0101	-0.017212393
109	0xbc61de0a	-0.013785848
110	0xbce66b16	-0.028127234
111	0xbcd4d649	-0.025981085
112	0xbca054b7	-0.019571645
113	0xbc2605e3	-0.010133239
114	0x3c3aaf6e	0.011394365
115	0xbd0202b5	-0.031740863
116	0xbd1cb8d1	-0.038262192
117	0xbc4d2652	-0.012521343
118	0x3ce4a32e	0.027909841
119	0xbbafc2d3	-0.005363801
120	0x3d18d7bf	0.037315127
121	0x3b229011	0.0024805109
122	0x3ccbbacd	0.024869347
123	0xbd1ac91a	-0.03778944
124	0x3cff43ce	0.031160261
125	0xbd311397	-0.043231573
126	0x3cad939e	0.021188553
127	0x3cc58afc	0.024114124
128	0x3cff0948	0.031132355
129	0xbc796566	-0.015221929
130	0xbd398bbd	-0.04529928
131	0xbd13501b	-0.035965066
132	0xbca6d4e3	-0.020365184
133	0xbcb607cd	-0.022220517
134	0x3cb79155	0.022408167
135	0x3aa25040	0.0012383536
136	0xbd474f2d	-0.048659492
137	0xbcaebfdd	-0.021331722
138	0x3cfd4ecd	0.030921364
139	0xbc2b9193	-0.010471719
140	0x3c25c5eb	0.010117988
141	0xbb92f858	-0.0044851713
142	0xbd4e531b	-0.050372224
143	0x3c8f5870	0.017498225
144	0x3b420e31	0.002961051
145	0x3c8977c4	0.016780742
146	0x3b96ac44	0.0045981724
147	0xbc8d2662	-0.017230216
148	0x3c17fb93	0.009276289
149	0xbd0d0a85	-0.03443386
150	0xbd316704	-0.043311134
151	0x3c8011db	0.015633514
152	0x3cab5359	0.020913767
153	0xbcfa654a	-0.030565877
154	0x3bcd58ca	0.006266688
155	0xbd2c0f48	-0.04200676
156	0x3addf6f0	0.0016934555
157	0xbd0d5f77	-0.03451487
158	0xbcd3c6b9	-0.025851594
159	0x3cc02a8e	0.023457792
160	0xbc41569e	-0.011800436
161	0x3c7389f5	0.0148644345
162	0xbcdfe1a9	-0.027329283
163	0xb9e19e10	-0.0004303311
164	0xbc89f2c0	-0.016839385
165	0x3c2ff8ad	0.010740441
166	0x3a50d982	0.00079669815
167	0xbcbd33ff	-0.023096083
168	0xbd0294a5	-0.03188004
169	0xbae8a360	-0.0017748885
170	0xbbea092b	-0.007142206
171	0xbd3819ba	-0.04494641
172	0xbd24f7dd	-0.040275443
173	0x3d141d73	0.036160897
174	0xbcb093ab	-0.021554789
175	0x3d166daa	0.036725678
176	0x3ce2670e	0.02763703
177	0x3cc9a73d	0.024615878
178	0xbb77dd2b	-0.0037821035
179	0xbb62dd1d	-0.0034616657
180	0x3ca52481	0.020159008
181	0xbc440856	-0.011964878
182	0xbc578423	-0.013154062
183	0xbcc6243f	-0.024187205
184	0x3c81bed6	0.015838068
185	0xbc35d98f	-0.011099233
186	0x3d0a663f	0.033788916
187	0x3c695ea3	0.014243755
188	0x3ca26628	0.019824103
189	0xbcf6d429	-0.030130463
190	0x3cc3b765	0.02389116
191	0xbd314002	-0.043273933
192	0xbce50db4	-0.027960636
193	0xbcd41dd2	-0.025893126
194	0xbd4bb20e	-0.049730353
195	0xbceea6bf	-0.029132245
196	0xbd2964f0	-0.041356027
197	0xbc952b3a	-0.018209089
198	0x3c9540c4	0.01821936
199	0xbc95960c	-0.018260024
200	0xbd23074d	-0.039801884
201	0xbb79294d	-0.0038019002
202	0xbd15c722	-0.03656686
203	0x3cc85966	0.024456691
204	0x3d0b8ed2	0.03407175
205	0x3cf8a361	0.030351343
206	0x3b373b4e	0.0027958932
207	0xbd1979a5	-0.037469525
208	0xbbd4003c	-0.0064697545
209	0x3a79905a	0.0009520106
210	0xbca56ff4	-0.020194985
211	0x3cdd0843	0.026981479
212	0xbca8a71c	-0.020587496
213	0xbc641318	-0.013920568
214	0x3b07811c	0.002067632
215	0xbbb606d9	-0.0055550155
216	0xbc527beb	-0.012846927
217	0x3b86dedc	0.0041159224
218	0xbd17c577	-0.03705355
219	0xbd3584a0	-0.044315934
220	0x3bb5acac	0.0055442657
221	0x3c823535	0.015894512
222	0x3cb80c68	0.022466853
223	0xbc4955e2	-0.012288542
224	0xbcee2712	-0.029071365
225	0x3cf6a8a8	0.030109718
226	0x3cd2f5d1	0.02575198
227	0x3d0fa1ea	0.035066523
228	0x3ce554a6	0.027994465
229	0x3ae412fb	0.0017400676
230	0xbc4eb64f	-0.012616708
231	0x3d034e96	0.032057367
232	0x3d355bb7	0.04427692
233	0x3c6e464a	0.014543125
234	0xbc9cb6ee	-0.019130196
235	0x3c8dd305	0.017312536
236	0xbd17a9fd	-0.037027348
237	0x3ce29d45	0.027662883
238	0x3b749d9d	0.003732539
239	0xbcfabac9	-0.030606644
240	0x3ccb9278	0.024850115
241	0xbd338119	-0.04382429
242	0xbd17f11b	-0.03709517
243	0x3d21b407	0.039478328
244	0xbb68e6e6	-0.0035538017
245	0xbbe6cb13	-0.0070432513
246	0x3c31f2be	0.010861097
247	0x3d2d8b69	0.04236928
248	0xbcbefec8	-0.023314849
249	0x3d0864fa	0.033299424
250	0xbc93802c	-0.018005453
251	0x3d082f74	0.03324838
252	0x3a9e71b5	0.0012088331
253	0x3d2a098c	0.04151301
254	0xbae9da6b	-0.0017841583
255	0xbd158380	-0.03650236

layer2.0.bias f4 [128]
0	0xbd14b147	-0.036301877
1	0x3d2d7fba	0.042358138
2	0xbcb9946e	-0.022653785
3	0xbc853c97	-0.016264243
4	0xbbb6f025	-0.0055828267
5	0x3b92113e	0.004457622
6	0x3d152a19	0.0364171
7	0x3cf01150	0.02930513
8	0x3bc60d48	0.0060440637
9	0x3bf366ac	0.007428011
10	0xbc9648c2	-0.01834524
11	0x3ac1dab1	0.0014789907
12	0x3b741b8b	0.0037247862
13	0xbc843041	-0.01613629
14	0x3cb7af29	0.02242239
15	0x3ceecbc3	0.029149896
16	0xbce8ce0c	-0.028418563
17	0xbc333bf4	-0.010939587
18	0x3b5974f7	0.0033181289
19	0x3d15c8e8	0.036568552
20	0x3b2f23d7	0.0026724243
21	0x3c59a8e2	0.013284894
22	0x3c42f676	0.011899581
23	0x3cfa9661	0.030589284
24	0x3b8f32e6	0.0043700812
25	0x3d2b3ddc	0.04180704
26	0x3c82c951	0.015965136
27	0x3cedb786	0.029018175
28	0xbcbba3af	-0.022905199
29	0x3c8dbee6	0.017302942
30	0xbcc667d7	-0.024219437
31	0xbcd9950b	-0.026560327
32	0x3aed3537	0.0018097524
33	0x3bcaa61b	0.006184352
34	0xbc604951	-0.013689355
35	0x3d08a19a	0.03335724
36	0x3c8208e3	0.015873378
37	0xbc87b69c	-0.016566567
38	0x3cb1903c	0.021675222
39	0xbc30e6ea	-0.010797242
40	0xbd05737a	-0.03258083
41	0x3c07505a	0.008258903
42	0x3d1ae4ad	0.03781574
43	0x3c5cfbb2	0.013487743
44	0x3ce9d5d4	0.028544344
45	0x3b6a0f97	0.0035714859
46	0xbb900bb3	-0.004395926
47	0x3d07f4f7	0.0331926
48	0x3c835d96	0.016035836
49	0xbc54dabf	-0.012991606
50	0x3d0920a2	0.033478387
51	0xbc6272b1	-0.01382129
52	0xbba860d5	-0.0051384964
53	0x3d1081e5	0.035280127
54	0x3d23413d	0.039857138
55	0x3cb4aee6	0.022056054
56	0xbca6c129	-0.020355778
57	0x3ca2a24d	0.019852782
58	0xbc1cadf6	-0.00956296
59	0xbd21919a	-0.039445497
60	0x3ba37899	0.0049887416
61	0xbc9781ac	-0.01849445
62	0x3d20daf1	0.0392713
63	0xbc5febdd	-0.013667074
64	0xbbe32879	-0.006932315
65	0xbd29f10d	-0.04148965
66	0xbcd907ed	-0.026493037
67	0xbceb1d71	-0.028700562
68	0x3cef2db6	0.029196601
69	0xbd221196	-0.039567553
70	0xbc94ff0d	-0.018188024
71	0x3cf76d8b	0.030203601
72	0x3d076275	0.03305288
73	0x3ca02f06	0.019553673
74	0xbca12772	-0.01967213
75	0x3c7709d1	0.015078024
76	0xbc1f104f	-0.009708478
77	0xbc2a72c7	-0.010403342
78	0xbc88bb48	-0.016690865
79	0xbbc1696d	-0.0059024603
80	0xbca1e6c3	-0.019763356
81	0x3ca69288	0.020333543
82	0xbc2f677b	-0.010705824
83	0x3d24a4a3	0.040196072
84	0x3c89bf3d	0.016814822
85	0xbc4d9753	-0.012548286
86	0xbc22d6f2	-0.009938942
87	0x3d04d08e	0.032425456
88	0x3ceaadea	0.028647382
89	0x3cff9b8b	0.031202098
90	0xbcad21b4	-0.021134235
91	0xbc2b16b3	-0.010442424
92	0x3d1536ce	0.03642922
93	0xbd08aa7c	-0.03336571
94	0xbc76202d	-0.01502232
95	0x3cc2162e	0.023692217
96	0x3c0dd888	0.008657582
97	0x3b8c5be6	0.004283416
98	0xbc0afdc5	-0.008483355
99	0xbb12c2d4	-0.0022393959
100	0xbc19ad8f	-0.0093797585
101	0xbbda1007	-0.0066547426
102	0x3cc5453d	0.024080867
103	0x3b7b8f4d	0.0038384974
104	0x3c3d5451	0.011555747
105	0xbc63063f	-0.01385647
106	0xbc30ebc0	-0.010798395
107	0xbcaf40c2	-0.021393184
108	0x3cdadcec	0.026716672
109	0xbcf38ae2	-0.02972931
110	0xbce58c0b	-0.02802088
111	0x3b8ed508	0.0043588914
112	0x3b8e89b6	0.0043499125
113	0x3ca47938	0.020077333
114	0xbc81df72	-0.015853617
115	0x3cfc770a	0.030818481
116	0xbd14f7d7	-0.03636917
117	0x3cb25dcf	0.021773247
118	0xbcdbf805	-0.026851663
119	0xbc887f8e	-0.016662385
120	0x3d259c7d	0.040432442
121	0x3c81daa3	0.015851324
122	0x3c703a30	0.0146623105
123	0x3c9e98f8	0.01936005
124	0xbc0e640e	-0.008690847
125	0xbc78657e	-0.015160916
126	0x3cec0947	0.028813018
127	0x3b81a873	0.0039568483
